…
ator . __getitem__ ( idx = 3 ) Define model use the codes defined in Part3 In [6]: from backend import define_YOLOv2 , set_pretrained_weight , initialize_weight CLASS = len ( LABELS ) model , true_boxes = define_YOLOv2 ( IMAGE_H , IMAGE_W , GRID_H , GRID_W , TRUE_BOX_BUFFER , BOX , CLASS , trainable = False ) model . summary () __________________________________________________________________________________________________ Layer (type) Output Shape Param # Connected to ================================================================================================== input_image (InputLayer) (None, 416, 416, 3) 0 __________________________________________________________________________________________________ conv_1 (Conv2D) (None, 416, 416, 32) 864 input_image[0][0] __________________________________________________________________________________________________ norm_1 (BatchNormalization) (None, 416, 416, 32) 128 conv_1[0][0] __________________________________________________________________________________________________ leaky_re_lu_1 (LeakyReLU) (None, 416, 416, 32) 0 norm_1[0][0] __________________________________________________________________________________________________ maxpool1_416to208 (MaxPooling2D (None, 208, 208, 32) 0 leaky_re_lu_1[0][0] __________________________________________________________________________________________________ conv_2 (Conv2D) (None, 208, 208, 64) 18432 maxpool1_416to208[0][0] __________________________________________________________________________________________________ norm_2 (BatchNormalization) (None, 208, 208, 64) 256 conv_2[0][0] __________________________________________________________________________________________________ leaky_re_lu_2 (LeakyReLU) (None, 208, 208, 64) 0 norm_2[0][0] __________________________________________________________________________________________________ maxpool1_208to104 (MaxPooling2D (None, 104, 104, 64) 0 leaky_re_lu_2[0][0] __________________________________________________________________________________________________ conv_3 (Conv2D) (None, 104, 104, 128 73728 maxpool1_208to104[0][0] __________________________________________________________________________________________________ norm_3 (BatchNormalization) (None, 104, 104, 128 512 conv_3[0][0] __________________________________________________________________________________________________ leaky_re_lu_3 (LeakyReLU) (None, 104, 104, 128 0 norm_3[0][0] __________________________________________________________________________________________________ conv_4 (Conv2D) (None, 104, 104, 64) 8192 leaky_re_lu_3[0][0] __________________________________________________________________________________________________ norm_4 (BatchNormalization) (None, 104, 104, 64) 256 conv_4[0][0] __________________________________________________________________________________________________ leaky_re_lu_4 (LeakyReLU) (None, 104, 104, 64) 0 norm_4[0][0] __________________________________________________________________________________________________ conv_5 (Conv2D) (None, 104, 104, 128 73728 leaky_re_lu_4[0][0] __________________________________________________________________________________________________ norm_5 (BatchNormalization) (None, 104, 104, 128 512 conv_5[0][0] __________________________________________________________________________________________________ leaky_re_lu_5 (LeakyReLU) (None, 104, 104, 128 0 norm_5[0][0] __________________________________________________________________________________________________ maxpool1_104to52 (MaxPooling2D) (None, 52, 52, 128) 0 leaky_re_lu_5[0][0] __________________________________________________________________________________________________ conv_6 (Conv2D) (None, 52, 52, 256) 294912 maxpool1_104to52[0][0] __________________________________________________________________________________________________ norm_6 (BatchNormalization) (None, 52, 52, 256) 1024 conv_6[0][0] __________________________________________________________________________________________________ leaky_re_lu_6 (LeakyReLU) (None, 52, 52, 256) 0 norm_6[0][0] __________________________________________________________________________________________________ conv_7 (Conv2D) (None, 52, 52, 128) 32768 leaky_re_lu_6[0][0] __________________________________________________________________________________________________ norm_7 (BatchNormalization) (None, 52, 52, 128) 512 conv_7[0][0] __________________________________________________________________________________________________ leaky_re_lu_7 (LeakyReLU) (None, 52, 52, 128) 0 norm_7[0][0] __________________________________________________________________________________________________ conv_8 (Conv2D) (None, 52, 52, 256) 294912 leaky_re_lu_7[0][0] __________________________________________________________________________________________________ norm_8 (BatchNormalization) (None, 52, 52, 256) 1024 conv_8[0][0] __________________________________________________________________________________________________ leaky_re_lu_8 (LeakyReLU) (None, 52, 52, 256) 0 norm_8[0][0] __________________________________________________________________________________________________ maxpool1_52to26 (MaxPooling2D) (None, 26, 26, 256) 0 leaky_re_lu_8[0][0] __________________________________________________________________________________________________ conv_9 (Conv2D) (None, 26, 26, 512) 1179648 maxpool1_52to26[0][0] __________________________________________________________________________________________________ norm_9 (BatchNormalization) (None, 26, 26, 512) 2048 conv_9[0][0] __________________________________________________________________________________________________ leaky_re_lu_9 (LeakyReLU) (None, 26, 26, 512) 0 norm_9[0][0] __________________________________________________________________________________________________ conv_10 (Conv2D) (None, 26, 26, 256) 131072 leaky_re_lu_9[0][0] __________________________________________________________________________________________________ norm_10 (BatchNormalization) (None, 26, 26, 256) 1024 conv_10[0][0] __________________________________________________________________________________________________ leaky_re_lu_10 (LeakyReLU) (None, 26, 26, 256) 0 norm_10[0][0] __________________________________________________________________________________________________ conv_11 (Conv2D) (None, 26, 26, 512) 1179648 leaky_re_lu_10[0][0] __________________________________________________________________________________________________ norm_11 (BatchNormalization) (None, 26, 26, 512) 2048 conv_11[0][0] __________________________________________________________________________________________________ leaky_re_lu_11 (LeakyReLU) (None, 26, 26, 512) 0 norm_11[0][0] __________________________________________________________________________________________________ conv_12 (Conv2D) (None, 26, 26, 256) 131072 leaky_re_lu_11[0][0] __________________________________________________________________________________________________ norm_12 (BatchNormalization) (None, 26, 26, 256) 1024 conv_12[0][0] __________________________________________________________________________________________________ leaky_re_lu_12 (LeakyReLU) (None, 26, 26, 256) 0 norm_12[0][0] __________________________________________________________________________________________________ conv_13 (Conv2D) (None, 26, 26, 512) 1179648 leaky_re_lu_12[0][0] __________________________________________________________________________________________________ norm_13 (BatchNormalization) (None, 26, 26, 512) 2048 conv_13[0][0] __________________________________________________________________________________________________ leaky_re_lu_13 (LeakyReLU) (None, 26, 26, 512) 0 norm_13[0][0] __________________________________________________________________________________________________ maxpool1_26to13 (MaxPooling2D) (None, 13, 13, 512) 0 leaky_re_lu_13[0][0] __________________________________________________________________________________________________ conv_14 (Conv2D) (None, 13, 13, 1024) 4718592 maxpool1_26to13[0][0] __________________________________________________________________________________________________ norm_14 (BatchNormalization) (None, 13, 13, 1024) 4096 conv_14[0][0] __________________________________________________________________________________________________ leaky_re_lu_14 (LeakyReLU) (None, 13, 13, 1024) 0 norm_14[0][0] __________________________________________________________________________________________________ conv_15 (Conv2D) (None, 13, 13, 512) 524288 leaky_re_lu_14[0][0] __________________________________________________________________________________________________ norm_15 (BatchNormalization) (None, 13, 13, 512) 2048 conv_15[0][0] __________________________________________________________________________________________________ leaky_re_lu_15 (LeakyReLU) (None, 13, 13, 512) 0 norm_15[0][0] __________________________________________________________________________________________________ conv_16 (Conv2D) (None, 13, 13, 1024) 4718592 leaky_re_lu_15[0][0] __________________________________________________________________________________________________ norm_16 (BatchNormalization) (None, 13, 13, 1024) 4096 conv_16[0][0] __________________________________________________________________________________________________ leaky_re_lu_16 (LeakyReLU) (None, 13, 13, 1024) 0 norm_16[0][0] __________________________________________________________________________________________________ conv_17 (Conv2D) (None, 13, 13, 512) 524288 leaky_re_lu_16[0][0] __________________________________________________________________________________________________ norm_17 (BatchNormalization) (None, 13, 13, 512) 2048 conv_17[0][0] __________________________________________________________________________________________________ leaky_re_lu_17 (LeakyReLU) (None, 13, 13, 512) 0 norm_17[0][0] __________________________________________________________________________________________________ conv_18 (Conv2D) (None, 13, 13, 1024) 4718592 leaky_re_lu_17[0][0] __________________________________________________________________________________________________ norm_18 (BatchNormalization) (None, 13, 13, 1024) 4096 conv_18[0][0] __________________________________________________________________________________________________ leaky_re_lu_18 (LeakyReLU) (None, 13, 13, 1024) 0 norm_18[0][0] __________________________________________________________________________________________________ conv_19 (Conv2D) (None, 13, 13, 1024) 9437184 leaky_re_lu_18[0][0] __________________________________________________________________________________________________ norm_19 (BatchNormalization) (None, 13, 13, 1024) 4096 conv_19[0][0] __________________________________________________________________________________________________ conv_21 (Conv2D) (None, 26, 26, 64) 32768 leaky_re_lu_13[0][0] __________________________________________________________________________________________________ leaky_re_lu_19 (LeakyReLU) (None, 13, 13, 1024) 0 norm_19[0][0] __________________________________________________________________________________________________ norm_21 (BatchNormalization) (None, 26, 26, 64) 256 conv_21[0][0] __________________________________________________________________________________________________ conv_20 (Conv2D) (None, 13, 13, 1024) 9437184 leaky_re_lu_19[0][0] __________________________________________________________________________________________________ leaky_re_lu_21 (LeakyReLU) (None, 26, 26, 64) 0 norm_21[0][0] __________________________________________________________________________________________________ norm_20 (BatchNormalization) (None, 13, 13, 1024) 4096 conv_20[0][0] __________________________________________________________________________________________________ lambda_1 (Lambda) (None, 13, 13, 256) 0 leaky_re_lu_21[0][0] __________________________________________________________________________________________________ leaky_re_lu_20 (LeakyReLU) (None, 13, 13, 1024) 0 norm_20[0][0] __________________________________________________________________________________________________ concatenate_1 (Concatenate) (None, 13, 13, 1280) 0 lambda_1[0][0] leaky_re_lu_20[0][0] __________________________________________________________________________________________________ conv_22 (Conv2D) (None, 13, 13, 1024) 11796480 concatenate_1[0][0] __________________________________________________________________________________________________ norm_22 (BatchNormalization) (None, 13, 13, 1024) 4096 conv_22[0][0] __________________________________________________________________________________________________ leaky_re_lu_22 (LeakyReLU) (None, 13, 13, 1024) 0 norm_22[0][0] __________________________________________________________________________________________________ conv_23 (Conv2D) (None, 13, 13, 100) 102500 leaky_re_lu_22[0][0] __________________________________________________________________________________________________ final_output (Reshape) (None, 13, 13, 4, 25 0 conv_23[0][0] __________________________________________________________________________________________________ input_hack (InputLayer) (None, 1, 1, 1, 50, 0 __________________________________________________________________________
…
. from ._conv import register_converters as _register_converters Using TensorFlow backend. WARNING:tensorflow:From /Users/yumikondo/anaconda3/lib/python3.6/site-packages/keras/backend/tensorflow_backend.py:1264: calling reduce_prod (from tensorflow.python.ops.math_ops) with keep_dims is deprecated and will be removed in a future version. Instructions for updating: keep_dims is deprecated, use keepdims instead _________________________________________________________________ Layer (type) Output Shape Param # ================================================================= input_1 (InputLayer) (None, 224, 224, 3) 0 _________________________________________________________________ block1_conv1 (Conv2D) (None, 224, 224, 64) 1792 _________________________________________________________________ block1_conv2 (Conv2D) (None, 224, 224, 64) 36928 _________________________________________________________________ block1_pool (MaxPooling2D) (None, 112, 112, 64) 0 _________________________________________________________________ block2_conv1 (Conv2D) (None, 112, 112, 128) 73856 _________________________________________________________________ block2_conv2 (Conv2D) (None, 112, 112, 128) 147584 _________________________________________________________________ block2_pool (MaxPooling2D) (None, 56, 56, 128) 0 _________________________________________________________________ block3_conv1 (Conv2D) (None, 56, 56, 256) 295168 _________________________________________________________________ block3_conv2 (Conv2D) (None, 56, 56, 256) 590080 _________________________________________________________________ block3_conv3 (Conv2D) (None, 56, 56, 256) 590080 _________________________________________________________________ block3_pool (MaxPooling2D) (None, 28, 28, 256) 0 _________________________________________________________________ block4_conv1 (Conv2D) (None, 28, 28, 512) 1180160 _________________________________________________________________ block4_conv2 (Conv2D) (None, 28, 28, 512) 2359808 _________________________________________________________________ block4_conv3 (Conv2D) (None, 28, 28, 512) 2359808 _________________________________________________________________ block4_pool (MaxPooling2D) (None, 14, 14, 512) 0 _________________________________________________________________ block5_conv1 (Conv2D) (None, 14, 14, 512) 2359808 _________________________________________________________________ block5_conv2 (Conv2D) (None, 14, 14, 512) 2359808 _________________________________________________________________ block5_conv3 (Conv2D) (None, 14, 14, 512) 2359808 _________________________________________________________________ block5_pool (MaxPooling2D) (None, 7, 7, 512) 0 _________________________________________________________________ flatten (Flatten) (None, 25088) 0 _________________________________________________________________ fc1 (Dense) (None, 4096) 102764544 _________________________________________________________________ fc2 (Dense) (None, 4096) 16781312 _________________________________________________________________ predictions (Dense) (None, 1000) 4097000 ================================================================= Total params: 138,357,544 Trainable params: 138,357,544 Non-trainable params: 0 _________________________________________________________________ As during the training, we need to clip the last two layers of the VGGnet. Here is the discussion quoted from my previous blog Part 4: Object Detection with Pascal VOC2012 - CNN feature e
…
m the much larger densely connected layers. Nevertheless, I will remove the last one fully connected layer and use the first fully connected layer output as the CNN Features. The next codes remove the last two layers. In [6]: from keras import models modelvgg = models . Model ( inputs = modelvgg16 . inputs , outputs = modelvgg16 . layers [ - 3 ] . output ) ## show the deep learning model modelvgg . summary () _________________________________________________________________ Layer (type) Output Shape Param # ================================================================= input_1 (InputLayer) (None, 224, 224, 3) 0 _________________________________________________________________ block1_conv1 (Conv2D) (None, 224, 224, 64) 1792 _________________________________________________________________ block1_conv2 (Conv2D) (None, 224, 224, 64) 36928 _________________________________________________________________ block1_pool (MaxPooling2D) (None, 112, 112, 64) 0 _________________________________________________________________ block2_conv1 (Conv2D) (None, 112, 112, 128) 73856 _________________________________________________________________ block2_conv2 (Conv2D) (None, 112, 112, 128) 147584 _________________________________________________________________ block2_pool (MaxPooling2D) (None, 56, 56, 128) 0 _________________________________________________________________ block3_conv1 (Conv2D) (None, 56, 56, 256) 295168 _________________________________________________________________ block3_conv2 (Conv2D) (None, 56, 56, 256) 590080 _________________________________________________________________ block3_conv3 (Conv2D) (None, 56, 56, 256) 590080 _________________________________________________________________ block3_pool (MaxPooling2D) (None, 28, 28, 256) 0 _________________________________________________________________ block4_conv1 (Conv2D) (None, 28, 28, 512) 1180160 _________________________________________________________________ block4_conv2 (Conv2D) (None, 28, 28, 512) 2359808 _________________________________________________________________ block4_conv3 (Conv2D) (None, 28, 28, 512) 2359808 _________________________________________________________________ block4_pool (MaxPooling2D) (None, 14, 14, 512) 0 _________________________________________________________________ block5_conv1 (Conv2D) (None, 14, 14, 512) 2359808 _________________________________________________________________ block5_conv2 (Conv2D) (None, 14, 14, 512) 2359808 _________________________________________________________________ block5_conv3 (Conv2D) (None, 14, 14, 512) 2359808 _________________________________________________________________ block5_pool (MaxPooling2D) (None, 7, 7, 512) 0 _________________________________________________________________ flatten (Flatten) (None, 25088) 0 _________________________________________________________________ fc1 (Dense) (None, 4096) 102764544 ================================================================= Total params: 117,479,232 Trainable params: 117,479,232 Non-trainable params: 0 _________________________________________________________________ Finally Extract pretrained CNN features. This step needs some time. In [7]: import time start = time . time () feature = modelvgg . predict ( X ) end = time . time () print ( \"TIME TOOK:
…
. Conv2D ( 3 , ( 1 , 1 ) , activation = 'sigmoid' , padding = 'same' , name = \"final_block\" )( d ) ## 32, 32 model = models . Model ( input_noise , img ) model . summary () return ( model ) ## Set the dimension of latent variables to be 100 noise_shape = ( 100 ,) generator = build_generator ( img_shape , noise_shape = noise_shape ) generator . compile ( loss = 'binary_crossentropy' , optimizer = optimizer ) _________________________________________________________________ Layer (type) Output Shape Param # ================================================================= input_1 (InputLayer) (None, 100) 0 _________________________________________________________________ dense_2 (Dense) (None, 1024) 103424 _________________________________________________________________ dense_3 (Dense) (None, 8192) 8396800 _________________________________________________________________ reshape_1 (Reshape) (None, 8, 8, 128) 0 _________________________________________________________________ conv2d_transpose_1 (Conv2DTr (None, 16, 16, 128) 65536 _________________________________________________________________ block_4 (Conv2D) (None, 16, 16, 64) 8256 _________________________________________________________________ conv2d_transpose_2 (Conv2DTr (None, 32, 32, 32) 8192 _________________________________________________________________ block_5 (Conv2D) (None, 32, 32, 64) 2112 _________________________________________________________________ final_block (Conv2D) (None, 32, 32, 3) 195 ================================================================= Total params: 8,584,515 Trainable params: 8,584,515 Non-trainable params: 0 _________________________________________________________________ Take a look at the generatied images BEFORE any training. As expectedly, the image is nothing like celebA. Our generator knows nothing about it and it outputs some random noise in a weak atte
…
 = 'block4_pool' )( x ) x = layers . Flatten ()( x ) x = layers . Dense ( 1024 , activation = \"relu\" )( x ) out = layers . Dense ( noutput , activation = 'sigmoid' )( x ) model = models . Model ( input_img , out ) return model discriminator = build_discriminator ( img_shape ) discriminator . compile ( loss = 'binary_crossentropy' , optimizer = optimizer , metrics = [ 'accuracy' ]) discriminator . summary () _________________________________________________________________ Layer (type) Output Shape Param # ================================================================= input_2 (InputLayer) (None, 32, 32, 3) 0 _________________________________________________________________ block1_conv1 (Conv2D) (None, 32, 32, 32) 896 _________________________________________________________________ block1_conv2 (Conv2D) (None, 32, 32, 32) 9248 _________________________________________________________________ block1_pool (MaxPooling2D) (None, 16, 16, 32) 0 _________________________________________________________________ block2_conv1 (Conv2D) (None, 16, 16, 64) 18496 _________________________________________________________________ block2_conv2 (Conv2D) (None, 16, 16, 64) 36928 _________________________________________________________________ block2_pool (MaxPooling2D) (None, 8, 8, 64) 0 _________________________________________________________________ block4_conv1 (Conv2D) (None, 8, 8, 128) 73856 _________________________________________________________________ block4_conv2 (Conv2D) (None, 8, 8, 128) 147584 _________________________________________________________________ block4_pool (MaxPooling2D) (None, 7, 7, 128) 0 _________________________________________________________________ flatten_1 (Flatten) (None, 6272) 0 _________________________________________________________________ dense_4 (Dense) (None, 1024) 6423552 _________________________________________________________________ dense_5 (Dense) (None, 1) 1025 ================================================================= Total params: 6,711,585 Trainable params: 6,711,585 Non-trainable params: 0 _________________________________________________________________ Combined model In 3232 8-bit RGB images, there are $2&#94;{3x8x32x32}=2&#94;{24576}$ possible arrangements of the pixel values in those images. The number of parameters of Generator and Dicri
…
of nose,....). The model was developed at Achieving Top 23% in Kaggle's Facial Keypoints Detection with Keras + Tensorflow . In [2]: from keras.models import model_from_json def load_model ( name ): model = model_from_json ( open ( name + '_architecture.json' ) . read ()) model . load_weights ( name + '_weights.h5' ) return ( model ) model = load_model ( \"model4\" ) model . summary () Using TensorFlow backend. _________________________________________________________________ Layer (type) Output Shape Param # ================================================================= conv2d_22 (Conv2D) (None, 94, 94, 32) 320 _________________________________________________________________ activation_37 (Activation) (None, 94, 94, 32) 0 _________________________________________________________________ max_pooling2d_22 (MaxPooling (None, 47, 47, 32) 0 _________________________________________________________________ conv2d_23 (Conv2D) (None, 46, 46, 64) 8256 _________________________________________________________________ activation_38 (Activation) (None, 46, 46, 64) 0 _________________________________________________________________ max_pooling2d_23 (MaxPooling (None, 23, 23, 64) 0 _________________________________________________________________ conv2d_24 (Conv2D) (None, 22, 22, 128) 32896 _________________________________________________________________ activation_39 (Activation) (None, 22, 22, 128) 0 _________________________________________________________________ max_pooling2d_24 (MaxPooling (None, 11, 11, 128) 0 _________________________________________________________________ flatten_8 (Flatten) (None, 15488) 0 _________________________________________________________________ dense_31 (Dense) (None, 500) 7744500 _________________________________________________________________ activation_40 (Activation) (None, 500) 0 _________________________________________________________________ dense_32 (Dense) (None, 500) 250500 _________________________________________________________________ activation_41 (Activation) (None, 500) 0 _________________________________________________________________ dense_33 (Dense) (None, 30) 15030 ================================================================= Total params: 8,051,502 Trainable params: 8,051,502 Non-trainable params: 0 _________________________________________________________________ Create a directory to save a TensorFlow model. In [3]: outdir = \"model4_tf\" try : os . mkdir ( outdir ) except : pass The codes in the next block are mostly based on amir-abdi's Github code
…
 data_format = IMAGE_ORDERING )( o ) ## Reshaping is necessary to use sample_weight_mode=\"temporal\" which assumes 3 dimensional output shape ## See below for the discussion of weights output = Reshape (( output_width * input_height * nClasses , 1 ))( output ) model = Model ( img_input , output ) model . summary () model . compile ( loss = 'mse' , optimizer = \"rmsprop\" , sample_weight_mode = \"temporal\" ) _________________________________________________________________ Layer (type) Output Shape Param # ================================================================= input_1 (InputLayer) (None, 96, 96, 1) 0 _________________________________________________________________ block1_conv1 (Conv2D) (None, 96, 96, 64) 640 _________________________________________________________________ block1_conv2 (Conv2D) (None, 96, 96, 64) 36928 _________________________________________________________________ block1_pool (MaxPooling2D) (None, 48, 48, 64) 0 _________________________________________________________________ block2_conv1 (Conv2D) (None, 48, 48, 128) 73856 _________________________________________________________________ block2_conv2 (Conv2D) (None, 48, 48, 128) 147584 _________________________________________________________________ block2_pool (MaxPooling2D) (None, 24, 24, 128) 0 _________________________________________________________________ bottleneck_1 (Conv2D) (None, 24, 24, 160) 11796640 _________________________________________________________________ bottleneck_2 (Conv2D) (None, 24, 24, 160) 25760 _________________________________________________________________ upsample_2 (Conv2DTranspose) (None, 96, 96, 15) 38400 _________________________________________________________________ reshape_1 (Reshape) (None, 138240, 1) 0 ================================================================= Total params: 12,119,808 Trainable params: 12,119,808 Non-trainable params: 0 _________________________________________________________________ Sample weights We will only include the annotated landmarks to calculate the loss. To do this, I will define the weight matrix (N_image, height, width, N_landmark). In this weight matrix, i
…
 , conv7_4 ]) o = Conv2DTranspose ( nClasses , kernel_size = ( 8 , 8 ) , strides = ( 8 , 8 ) , use_bias = False , data_format = IMAGE_ORDERING )( o ) o = ( Activation ( 'softmax' ))( o ) model = Model ( img_input , o ) return model model = FCN8 ( nClasses = n_classes , input_height = 224 , input_width = 224 ) model . summary () ____________________________________________________________________________________________________ Layer (type) Output Shape Param # Connected to ==================================================================================================== input_1 (InputLayer) (None, 224, 224, 3) 0 ____________________________________________________________________________________________________ block1_conv1 (Conv2D) (None, 224, 224, 64) 1792 input_1[0][0] ____________________________________________________________________________________________________ block1_conv2 (Conv2D) (None, 224, 224, 64) 36928 block1_conv1[0][0] ____________________________________________________________________________________________________ block1_pool (MaxPooling2D) (None, 112, 112, 64) 0 block1_conv2[0][0] ____________________________________________________________________________________________________ block2_conv1 (Conv2D) (None, 112, 112, 128) 73856 block1_pool[0][0] ____________________________________________________________________________________________________ block2_conv2 (Conv2D) (None, 112, 112, 128) 147584 block2_conv1[0][0] ____________________________________________________________________________________________________ block2_pool (MaxPooling2D) (None, 56, 56, 128) 0 block2_conv2[0][0] ____________________________________________________________________________________________________ block3_conv1 (Conv2D) (None, 56, 56, 256) 295168 block2_pool[0][0] ____________________________________________________________________________________________________ block3_conv2 (Conv2D) (None, 56, 56, 256) 590080 block3_conv1[0][0] ____________________________________________________________________________________________________ block3_conv3 (Conv2D) (None, 56, 56, 256) 590080 block3_conv2[0][0] ____________________________________________________________________________________________________ block3_pool (MaxPooling2D) (None, 28, 28, 256) 0 block3_conv3[0][0] ____________________________________________________________________________________________________ block4_conv1 (Conv2D) (None, 28, 28, 512) 1180160 block3_pool[0][0] ____________________________________________________________________________________________________ block4_conv2 (Conv2D) (None, 28, 28, 512) 2359808 block4_conv1[0][0] ____________________________________________________________________________________________________ block4_conv3 (Conv2D) (None, 28, 28, 512) 2359808 block4_conv2[0][0] ____________________________________________________________________________________________________ block4_pool (MaxPooling2D) (None, 14, 14, 512) 0 block4_conv3[0][0] ____________________________________________________________________________________________________ block5_conv1 (Conv2D) (None, 14, 14, 512) 2359808 block4_pool[0][0] ____________________________________________________________________________________________________ block5_conv2 (Conv2D) (None, 14, 14, 512) 2359808 block5_conv1[0][0] ____________________________________________________________________________________________________ block5_conv3 (Conv2D) (None, 14, 14, 512) 2359808 block5_conv2[0][0] ____________________________________________________________________________________________________ block5_pool (MaxPooling2D) (None, 7, 7, 512) 0 block5_conv3[0][0] ____________________________________________________________________________________________________ conv6 (Conv2D) (None, 7, 7, 4096) 102764544 block5_pool[0][0] ____________________________________________________________________________________________________ pool4_11 (Conv2D) (None, 14, 14, 12) 6156 block4_pool[0][0] ____________________________________________________________________________________________________ conv7 (Conv2D) (None, 7, 7, 4096) 16781312 conv6[0][0] ____________________________________________________________________________________________________ conv2d_transpose_2 (Conv2DTransp (None, 28, 28, 12) 576 pool4_11[0][0] ____________________________________________________________________________________________________ pool3_11 (Conv2D) (None, 28, 28, 12) 3084 block3_pool[0][0] ____________________________________________________________________________________________________ conv2d_transpose_1 (Conv2DTransp (None, 28, 28, 12) 786432 conv7[0][0] ____________________________________________________________________________________________________ add (Add) (None, 28, 28, 12) 0 conv2d_transpose_2[0][0] pool3_11[0][0] conv2d_transpose_1[0][0] ____________________________________________________________________________________________________ conv2d_transpose_3 (Conv2DTransp (None, 224, 224, 12) 9216 add[0][0] ____________________________________________________________________________________________________ activation_1 (Activation) (None, 224, 224, 12) 0 conv2d_transpose_3[0][0] ==================================================================================================== Total params: 135,066,008 Trainable params: 135,066,008 Non-trainable params: 0 ____________________________________________________________________________________________________ Split between training and testing data In [8]: from sklearn.utils import shuffle train_rate
…
des = ( 2 , 2 ))) model . add ( Conv2D ( 64 , kernel_size = ( 2 , 2 ), name = \"CL4\" )) model . add ( Activation ( 'relu' )) model . add ( Flatten ()) model . add ( Dense ( 100 , name = \"FC5\" )) model . add ( Activation ( 'relu' )) model . add ( Dense ( 10 , name = \"FC6\" )) model . compile ( loss = 'mse' , optimizer = 'adam' ) return ( model ) model = StandardCNN ( input_shape = target_shape ) model . summary () _________________________________________________________________ Layer (type) Output Shape Param # ================================================================= CL1 (Conv2D) (None, 86, 86, 16) 1216 _________________________________________________________________ activation_1 (Activation) (None, 86, 86, 16) 0 _________________________________________________________________ max_pooling2d_1 (MaxPooling2 (None, 43, 43, 16) 0 _________________________________________________________________ CL2 (Conv2D) (None, 41, 41, 48) 6960 _________________________________________________________________ activation_2 (Activation) (None, 41, 41, 48) 0 _________________________________________________________________ max_pooling2d_2 (MaxPooling2 (None, 20, 20, 48) 0 _________________________________________________________________ CL3 (Conv2D) (None, 18, 18, 64) 27712 _________________________________________________________________ activation_3 (Activation) (None, 18, 18, 64) 0 _________________________________________________________________ max_pooling2d_3 (MaxPooling2 (None, 9, 9, 64) 0 _________________________________________________________________ CL4 (Conv2D) (None, 8, 8, 64) 16448 _________________________________________________________________ activation_4 (Activation) (None, 8, 8, 64) 0 _________________________________________________________________ flatten_1 (Flatten) (None, 4096) 0 _________________________________________________________________ FC5 (Dense) (None, 100) 409700 _________________________________________________________________ activation_5 (Activation) (None, 100) 0 _________________________________________________________________ FC6 (Dense) (None, 10) 1010 ================================================================= Total params: 463,046 Trainable params: 463,046 Non-trainable params: 0 _________________________________________________________________ Training starts here In [16]: batch_size = xy_train . shape [ 0 ] Nepochs = 200 iepoch = 1 hists = [] for xs , ys in generator . flow ( xy_train , batch_size = batch_size ): hist = model . fit ( 
…
t ( rate_dropout )( network ) out = Dense ( 1 , activation = \"linear\" )( network ) model = Model ( inputs = [ tinput ], outputs = out ) model . compile ( loss = \"mean_squared_error\" , optimizer = optimizers . Adam ( lr = 0.0001 )) #0.0005 return ( model ) model1 = define_model () model1 . summary () hist = model1 . fit ( x_train , y_train , batch_size = len ( x_train ), verbose = False , epochs = 20000 ) _________________________________________________________________ Layer (type) Output Shape Param # ================================================================= ts_input (InputLayer) (None, 1) 0 _________________________________________________________________ dense_1 (Dense) (None, 1024) 2048 _________________________________________________________________ dropout_2 (Dropout) (None, 1024) 0 _________________________________________________________________ dense_2 (Dense) (None, 1024) 1049600 _________________________________________________________________ dropout_3 (Dropout) (None, 1024) 0 _________________________________________________________________ dense_3 (Dense) (None, 1024) 1049600 _________________________________________________________________ dropout_4 (Dropout) (None, 1024) 0 _________________________________________________________________ dense_4 (Dense) (None, 1024) 1049600 _________________________________________________________________ dropout_5 (Dropout) (None, 1024) 0 _________________________________________________________________ dense_5 (Dense) (None, 1) 1025 ================================================================= Total params: 3,151,873 Trainable params: 3,151,873 Non-trainable params: 0 _________________________________________________________________ Plot the validaiton loss and training loss In [14]: for key in hist . history . keys (): plt . plot ( hist . history [ key ], label = key ) plt . title ( \"loss={:5.4f}\" . format ( hist . hi
…
. add ( Activation ( 'relu' )) model . add ( MaxPooling2D ( pool_size = ( 2 , 2 ))) model . add ( Conv2D ( 32 , 3 , 3 , border_mode = 'same' )) model . add ( Activation ( 'relu' )) model . add ( Conv2D ( 32 , 3 , 3 )) model . add ( Activation ( 'relu' )) model . add ( Flatten ()) model . add ( Dense ( Y . shape [ 1 ], name = \"Dense_layer\" )) model . compile ( loss = 'mse' , optimizer = 'sgd' ) model . summary () _________________________________________________________________ Layer (type) Output Shape Param # ================================================================= conv2d (Conv2D) (None, 90, 90, 32) 896 _________________________________________________________________ activation_5 (Activation) (None, 90, 90, 32) 0 _________________________________________________________________ conv2d_4 (Conv2D) (None, 88, 88, 32) 9248 _________________________________________________________________ activation_6 (Activation) (None, 88, 88, 32) 0 _________________________________________________________________ max_pooling2d_2 (MaxPooling2 (None, 44, 44, 32) 0 _________________________________________________________________ conv2d_5 (Conv2D) (None, 44, 44, 32) 9248 _________________________________________________________________ activation_7 (Activation) (None, 44, 44, 32) 0 _________________________________________________________________ conv2d_6 (Conv2D) (None, 42, 42, 32) 9248 _________________________________________________________________ activation_8 (Activation) (None, 42, 42, 32) 0 _________________________________________________________________ flatten_2 (Flatten) (None, 56448) 0 _________________________________________________________________ Dense_layer (Dense) (None, 10) 564490 ================================================================= Total params: 593,130 Trainable params: 593,130 Non-trainable params: 0 _________________________________________________________________ Training starts here Here, I use 20% of randomly selected the training data as the validation data. This is probablly not a very good idea considering the high correlation across adjacent images 
…
 2 , ( 3 , 3 ), activation = 'tanh' , padding = 'same' )) #model.add(Conv2D(2, (3, 3), padding='same')) model . add ( UpSampling2D (( 2 , 2 ))) model . compile ( optimizer = 'rmsprop' , loss = 'mse' ) return ( model ) # Finish model # Image transformer datagen = ImageDataGenerator ( shear_range = 0.2 , zoom_range = 0.2 , rotation_range = 20 , horizontal_flip = True ) model = define_model () model . summary () _________________________________________________________________ Layer (type) Output Shape Param # ================================================================= input_1 (InputLayer) (None, 256, 256, 1) 0 _________________________________________________________________ conv2d_1 (Conv2D) (None, 256, 256, 64) 640 _________________________________________________________________ conv2d_2 (Conv2D) (None, 128, 128, 64) 36928 _________________________________________________________________ conv2d_3 (Conv2D) (None, 128, 128, 128) 73856 _________________________________________________________________ conv2d_4 (Conv2D) (None, 64, 64, 128) 147584 _________________________________________________________________ conv2d_5 (Conv2D) (None, 64, 64, 256) 295168 _________________________________________________________________ conv2d_6 (Conv2D) (None, 32, 32, 256) 590080 _________________________________________________________________ conv2d_7 (Conv2D) (None, 32, 32, 512) 1180160 _________________________________________________________________ conv2d_8 (Conv2D) (None, 32, 32, 256) 1179904 _________________________________________________________________ conv2d_9 (Conv2D) (None, 32, 32, 128) 295040 _________________________________________________________________ up_sampling2d_1 (UpSampling2 (None, 64, 64, 128) 0 _________________________________________________________________ conv2d_10 (Conv2D) (None, 64, 64, 64) 73792 _________________________________________________________________ up_sampling2d_2 (UpSampling2 (None, 128, 128, 64) 0 _________________________________________________________________ conv2d_11 (Conv2D) (None, 128, 128, 32) 18464 _________________________________________________________________ conv2d_12 (Conv2D) (None, 128, 128, 2) 578 _________________________________________________________________ up_sampling2d_3 (UpSampling2 (None, 256, 256, 2) 0 ================================================================= Total params: 3,892,194 Trainable params: 3,892,194 Non-trainable params: 0 _________________________________________________________________ Training starts Notice that I removed the rgb2lab line from image_a_b_gen n that existed in Colorizing B&W; Photos with Neural Networks . The conversion is not necessary because our Xtrain is
…
ter at ../output/ by: wget 'https://github.com/fchollet/deep-learning-models/releases/download/v0.1/vgg16_weights_tf_dim_ordering_tf_kernels.h5' --no-check-certificate In [11]: from keras.applications import VGG16 modelvgg = VGG16 ( include_top = True , weights = None ) ## load the locally saved weights modelvgg . load_weights ( \"../output/vgg16_weights_tf_dim_ordering_tf_kernels.h5\" ) modelvgg . summary () _________________________________________________________________ Layer (type) Output Shape Param # ================================================================= input_1 (InputLayer) (None, 224, 224, 3) 0 _________________________________________________________________ block1_conv1 (Conv2D) (None, 224, 224, 64) 1792 _________________________________________________________________ block1_conv2 (Conv2D) (None, 224, 224, 64) 36928 _________________________________________________________________ block1_pool (MaxPooling2D) (None, 112, 112, 64) 0 _________________________________________________________________ block2_conv1 (Conv2D) (None, 112, 112, 128) 73856 _________________________________________________________________ block2_conv2 (Conv2D) (None, 112, 112, 128) 147584 _________________________________________________________________ block2_pool (MaxPooling2D) (None, 56, 56, 128) 0 _________________________________________________________________ block3_conv1 (Conv2D) (None, 56, 56, 256) 295168 _________________________________________________________________ block3_conv2 (Conv2D) (None, 56, 56, 256) 590080 _________________________________________________________________ block3_conv3 (Conv2D) (None, 56, 56, 256) 590080 _________________________________________________________________ block3_pool (MaxPooling2D) (None, 28, 28, 256) 0 _________________________________________________________________ block4_conv1 (Conv2D) (None, 28, 28, 512) 1180160 _________________________________________________________________ block4_conv2 (Conv2D) (None, 28, 28, 512) 2359808 _________________________________________________________________ block4_conv3 (Conv2D) (None, 28, 28, 512) 2359808 _________________________________________________________________ block4_pool (MaxPooling2D) (None, 14, 14, 512) 0 _________________________________________________________________ block5_conv1 (Conv2D) (None, 14, 14, 512) 2359808 _________________________________________________________________ block5_conv2 (Conv2D) (None, 14, 14, 512) 2359808 _________________________________________________________________ block5_conv3 (Conv2D) (None, 14, 14, 512) 2359808 _________________________________________________________________ block5_pool (MaxPooling2D) (None, 7, 7, 512) 0 _________________________________________________________________ flatten (Flatten) (None, 25088) 0 _________________________________________________________________ fc1 (Dense) (None, 4096) 102764544 _________________________________________________________________ fc2 (Dense) (None, 4096) 16781312 _________________________________________________________________ predictions (Dense) (None, 1000) 4097000 ================================================================= Total params: 138,357,544 Trainable params: 138,357,544 Non-trainable params: 0 _________________________________________________________________ VGG16 is developed to classify images into 1,000 different classes. As I am not using VGG16 for the sake of the classification but I just need it for extracting features, I will remove the last layer from the network. In [12]: from keras import models modelvgg . layers . pop () modelvgg = models . Model ( inputs = modelvgg . inputs , outputs = modelvgg . layers [ - 1 ] . output ) ## show the deep learning model modelvgg . summary () _________________________________________________________________ Layer (type) Output Shape Param # ================================================================= input_1 (InputLayer) (None, 224, 224, 3) 0 _________________________________________________________________ block1_conv1 (Conv2D) (None, 224, 224, 64) 1792 _________________________________________________________________ block1_conv2 (Conv2D) (None, 224, 224, 64) 36928 _________________________________________________________________ block1_pool (MaxPooling2D) (None, 112, 112, 64) 0 _________________________________________________________________ block2_conv1 (Conv2D) (None, 112, 112, 128) 73856 _________________________________________________________________ block2_conv2 (Conv2D) (None, 112, 112, 128) 147584 _________________________________________________________________ block2_pool (MaxPooling2D) (None, 56, 56, 128) 0 _________________________________________________________________ block3_conv1 (Conv2D) (None, 56, 56, 256) 295168 _________________________________________________________________ block3_conv2 (Conv2D) (None, 56, 56, 256) 590080 _________________________________________________________________ block3_conv3 (Conv2D) (None, 56, 56, 256) 590080 _________________________________________________________________ block3_pool (MaxPooling2D) (None, 28, 28, 256) 0 _________________________________________________________________ block4_conv1 (Conv2D) (None, 28, 28, 512) 1180160 _________________________________________________________________ block4_conv2 (Conv2D) (None, 28, 28, 512) 2359808 _________________________________________________________________ block4_conv3 (Conv2D) (None, 28, 28, 512) 2359808 _________________________________________________________________ block4_pool (MaxPooling2D) (None, 14, 14, 512) 0 _________________________________________________________________ block5_conv1 (Conv2D) (None, 14, 14, 512) 2359808 _________________________________________________________________ block5_conv2 (Conv2D) (None, 14, 14, 512) 2359808 _________________________________________________________________ block5_conv3 (Conv2D) (None, 14, 14, 512) 2359808 _________________________________________________________________ block5_pool (MaxPooling2D) (None, 7, 7, 512) 0 _________________________________________________________________ flatten (Flatten) (None, 25088) 0 _________________________________________________________________ fc1 (Dense) (None, 4096) 102764544 _________________________________________________________________ fc2 (Dense) (None, 4096) 16781312 ================================================================= Total params: 134,260,544 Trainable params: 134,260,544 Non-trainable params: 0 _________________________________________________________________ Images In [13]: from keras.preprocessing.image import load_img , img_to_array from keras.applications.vgg16 import preprocess_input from collections import OrderedDict images = OrderedDic
…
]) decoder = layers . Dense ( 256 , activation = 'relu' )( decoder ) output = layers . Dense ( vocab_size , activation = 'softmax' )( decoder ) model = models . Model ( inputs = [ input_image , input_txt ], outputs = output ) model . compile ( loss = 'categorical_crossentropy' , optimizer = 'adam' ) print ( model . summary ()) 4476 __________________________________________________________________________________________________ Layer (type) Output Shape Param # Connected to ================================================================================================== input_3 (InputLayer) (None, 30) 0 __________________________________________________________________________________________________ embedding_1 (Embedding) (None, 30, 64) 286464 input_3[0][0] __________________________________________________________________________________________________ input_2 (InputLayer) (None, 4096) 0 __________________________________________________________________________________________________ CaptionFeature (LSTM) (None, 256) 328704 embedding_1[0][0] __________________________________________________________________________________________________ ImageFeature (Dense) (None, 256) 1048832 input_2[0][0] __________________________________________________________________________________________________ add_1 (Add) (None, 256) 0 CaptionFeature[0][0] ImageFeature[0][0] __________________________________________________________________________________________________ dense_1 (Dense) (None, 256) 65792 add_1[0][0] __________________________________________________________________________________________________ dense_2 (Dense) (None, 4476) 1150332 dense_1[0][0] ================================================================================================== Total params: 2,880,124 Trainable params: 2,880,124 Non-trainable params: 0 __________________________________________________________________________________________________ None Model training In [22]: # fit model start = time . time () hist = model . fit ([ Ximage_train , Xtext_trai
…
utputs = [ out ]) encoder = Model ( inputs = [ inp ], outputs = [ rep_encoder ]) model . summary () return ( model , encoder ) HIDDEN_ENCODER = 1 #128 HIDDEN_DECODER = 3 #128 model , encoder = define_model ( MAXLEN , DIGITS + 1 , chars , HIDDEN_ENCODER , HIDDEN_DECODER , RNN = layers . SimpleRNN ) model . compile ( loss = 'categorical_crossentropy' , optimizer = 'adam' , metrics = [ 'accuracy' ]) Build model... _________________________________________________________________ Layer (type) Output Shape Param # ================================================================= Input (InputLayer) (None, 3, 12) 0 _________________________________________________________________ encoder1 (SimpleRNN) (None, 1) 14 _________________________________________________________________ repeat_vector (RepeatVector) (None, 2, 1) 0 _________________________________________________________________ decoder1 (SimpleRNN) (None, 2, 3) 15 _________________________________________________________________ time_distributed_dense (Time (None, 2, 12) 48 ================================================================= Total params: 77 Trainable params: 77 Non-trainable params: 0 _________________________________________________________________ Define printing functions for model training In [9]: def print_predicted ( x , y , model , ctable , colors ): for i in range ( x . shape [ 0 ]): rowx , rowy = x [[ i ]], y [[ i ]] preds = model . predict (
…
00, it was still about validation accuracy was still as low as 0.6. Due to the computational resource, we consider complex model that converges faster. In [17]: set_seed () model2 , encoder2 = define_model ( MAXLEN_x , MAXLEN_y , chars2 , HIDDEN_ENCODER = [ 256 ], HIDDEN_DECODER = [ 256 ], RNN = layers . LSTM ) model2 . compile ( loss = 'categorical_crossentropy' , optimizer = 'adam' , metrics = [ 'accuracy' ]) _________________________________________________________________ Layer (type) Output Shape Param # ================================================================= Input (InputLayer) (None, 7, 17) 0 _________________________________________________________________ encoder1 (LSTM) (None, 256) 280576 _________________________________________________________________ repeat_vector (RepeatVector) (None, 6, 256) 0 _________________________________________________________________ decoder1 (LSTM) (None, 6, 256) 525312 _________________________________________________________________ time_distributed_dense (Time (None, 6, 17) 4369 ================================================================= Total params: 810,257 Trainable params: 810,257 Non-trainable params: 0 _________________________________________________________________ Training In [18]: set_seed () history2 = train ( model2 , ctable2 , x_train , y_train , x_val , y_val , nb_epochs = 100 , #2000 print_every = 10 , BATCH_SIZE = 64 ) ------------------------------
…
psNet ( input_shape = [ 28 , 28 , 1 ], n_class = n_class , num_routing = 3 ) myprint () print ( \"Capsule Net (all)\" ) myprint () model . summary () myprint () print ( \"Capsule Net (without the decoder)\" ) myprint () model_wo_decoder . summary () ~~~~~~~~~~~~~~~~~~~~~~~~~~~~~~ Capsule Net (all) ~~~~~~~~~~~~~~~~~~~~~~~~~~~~~~ ____________________________________________________________________________________________________ Layer (type) Output Shape Param # Connected to ==================================================================================================== input_1 (InputLayer) (None, 28, 28, 1) 0 ____________________________________________________________________________________________________ Conv1 (Conv2D) (None, 20, 20, 256) 20992 input_1[0][0] ____________________________________________________________________________________________________ PrimaryCap_conv2d (Conv2D) (None, 6, 6, 256) 5308672 Conv1[0][0] ____________________________________________________________________________________________________ PrimaryCap_reshape (Reshape) (None, 1152, 8) 0 PrimaryCap_conv2d[0][0] ____________________________________________________________________________________________________ PrimaryCap_squash (Lambda) (None, 1152, 8) 0 PrimaryCap_reshape[0][0] ____________________________________________________________________________________________________ DigitCaps (CapsuleLayer) (None, 10, 16) 1486080 PrimaryCap_squash[0][0] ____________________________________________________________________________________________________ true_label (InputLayer) (None, 10) 0 ____________________________________________________________________________________________________ activity_vec (Mask) (None, 16) 0 DigitCaps[0][0] true_label[0][0] ____________________________________________________________________________________________________ FC1 (Dense) (None, 512) 8704 activity_vec[0][0] ____________________________________________________________________________________________________ FC2 (Dense) (None, 1024) 525312 FC1[0][0] ____________________________________________________________________________________________________ FC3 (Dense) (None, 784) 803600 FC2[0][0] ____________________________________________________________________________________________________ out_caps (Length) (None, 10) 0 DigitCaps[0][0] ____________________________________________________________________________________________________ out_recon (Reshape) (None, 28, 28, 1) 0 FC3[0][0] ==================================================================================================== Total params: 8,153,360 Trainable params: 8,141,840 Non-trainable params: 11,520 ____________________________________________________________________________________________________ ~~~~~~~~~~~~~~~~~~~~~~~~~~~~~~ Capsule Net (without the decoder) ~~~~~~~~~~~~~~~~~~~~~~~~~~~~~~ _________________________________________________________________ Layer (type) Output Shape Param # ================================================================= input_1 (InputLayer) (None, 28, 28, 1) 0 _________________________________________________________________ Conv1 (Conv2D) (None, 20, 20, 256) 20992 _________________________________________________________________ PrimaryCap_conv2d (Conv2D) (None, 6, 6, 256) 5308672 _________________________________________________________________ PrimaryCap_reshape (Reshape) (None, 1152, 8) 0 _________________________________________________________________ PrimaryCap_squash (Lambda) (None, 1152, 8) 0 _________________________________________________________________ DigitCaps (CapsuleLayer) (None, 10, 16) 1486080 ================================================================= Total params: 6,815,744 Trainable params: 6,804,224 Non-trainable params: 11,520 _________________________________________________________________ Load data Keras has nice API to extract MNIST data. Using keras.datasets, we can readily load data. from keras.datasets import mnist (x_train, y_train), (x_test, y_test) = mnist.load_dat
…
order to visualize the reconstructed images from every activity vector, we create a decoder model that takes activity vectors as input and output the reconstructed images. In [13]: dim_vector = 16 activity_vec = layers . Input ( shape = ( dim_vector ,), name = \"activity_vec\" ) decoder_out = Decoder ( activity_vec ) decoder_model = models . Model ( activity_vec , decoder_out ) decoder_model . summary () _________________________________________________________________ Layer (type) Output Shape Param # ================================================================= activity_vec (InputLayer) (None, 16) 0 _________________________________________________________________ FC1 (Dense) (None, 512) 8704 _________________________________________________________________ FC2 (Dense) (None, 1024) 525312 _________________________________________________________________ FC3 (Dense) (None, 784) 803600 _________________________________________________________________ out_recon (Reshape) (None, 28, 28, 1) 0 ================================================================= Total params: 1,337,616 Trainable params: 1,337,616 Non-trainable params: 0 _________________________________________________________________ Transfer the weights trained Capsule Network to the newly created decoder model. In [14]: for layer_CapsNet in model . layers : for layer_decoder in decoder_model . layers : if layer_decoder 
…
 Dense ( 192 , activation = 'relu' )) ## 1024, 2048, 4096,8192 model . add ( Dropout ( 0.5 )) model . add ( Dense ( n_class )) model . add ( Activation ( 'softmax' , name = \"output\" )) model . compile ( loss = \"categorical_crossentropy\" , optimizer = optimizers . Adam ( lr = 0.0005 ), metrics = { 'output' : 'accuracy' }) return ( model ) model = StandardCNN ( input_shape = ( 28 , 28 , 1 )) model . summary () _________________________________________________________________ Layer (type) Output Shape Param # ================================================================= conv2d_1 (Conv2D) (None, 28, 28, 256) 6656 _________________________________________________________________ conv2d_2 (Conv2D) (None, 28, 28, 256) 1638656 _________________________________________________________________ conv2d_3 (Conv2D) (None, 28, 28, 128) 819328 _________________________________________________________________ flatten_1 (Flatten) (None, 100352) 0 _________________________________________________________________ dense_1 (Dense) (None, 328) 32915784 _________________________________________________________________ dense_2 (Dense) (None, 192) 63168 _________________________________________________________________ dropout_1 (Dropout) (None, 192) 0 _________________________________________________________________ dense_3 (Dense) (None, 10) 1930 _________________________________________________________________ output (Activation) (None, 10) 0 ================================================================= Total params: 35,445,522 Trainable params: 35,445,522 Non-trainable params: 0 _________________________________________________________________ Training We set the number of epochs to be 20. In [4]: %% time seed(1) set_random_seed(1) hist1 = model.fit(x_train, y_train, batch_size=64, nb_epoch=20, validation_data=[x_test, y_test],ve
…
